model/dp_sgd_model.pth (torch, 1654 bytes, 2 tensors)

_module.linear.weight f4 [2, 8]
0	0xbf436f21	-0.76341444
1	0xbf6058da	-0.87635577
2	0xbef98f0d	-0.48741952
3	0xbf52292c	-0.82094073
4	0xbf42c446	-0.7608074
5	0x3f611ffd	0.87939435
6	0xbf08aa9c	-0.5338533
7	0xbfccee26	-1.6010177
8	0x3f6888ab	0.9083354
9	0x3f90bc8a	1.1307538
10	0x3f7c2809	0.9849859
11	0x3f53f0d1	0.8278933
12	0x3f9bec73	1.2181534
13	0xbf13d16b	-0.5774142
14	0x3fb5145a	1.4146836
15	0x3f9e8ede	1.238735

_module.linear.bias f4 [2]
0	0x3f2fddb3	0.6869766
1	0xbf8c12ea	-1.0943272
