model/dp_sgd_model.pth (torch, 1211 bytes, 2 tensors)

_module.linear.weight f4 [2, 8]
00000000: d62c 0fbf 6573 8dbf be2f 3bbf 884f 1abf
00000010: f222 41bf a92a 833f 0646 9cbf 7a26 99bf
00000020: 4d6d 8b3f ed40 5b3f 38f0 483f 8cb3 813f
00000030: fbb6 7f3f 13fb 1cbd 1525 d03e 486f c43f
-0.5592779 -1.1050841 -0.73119724 -0.60277605 -0.7544395 1.0247394 -1.220887 -1.1964867
1.0892731 0.85645944 0.78491545 1.0132918 0.9988858 -0.03832538 0.4065329 1.534646

_module.linear.bias f4 [2]
00000000: b6dd 103f ae3d 97bf
0.56588304 -1.1815698
