dp_sgd_model.pth (torch, 1654 bytes, 2 tensors)

_module.linear.weight f4 [2, 8]
0	0xbe42e317	-0.1903194
1	0xbea43a76	-0.32075852
2	0xbebfca55	-0.37459055
3	0xbf55a342	-0.83452237
4	0xbf3ee7cb	-0.7457244
5	0x3d9b0d52	0.075709
6	0xbeafcca5	-0.3433582
7	0xbf987a07	-1.191224
8	0x3ef00e9d	0.4688615
9	0x3f91a684	1.1378942
10	0x3ec6291f	0.38703248
11	0x3ec28b0d	0.37996712
12	0x3ee1a792	0.44073159
13	0xbf0078bd	-0.5018423
14	0x3f21e354	0.632375
15	0x3f871b30	1.0555172

_module.linear.bias f4 [2]
0	0x3f8aedb1	1.0853788
1	0xbe1c9782	-0.1529217
